src/Chatbot/data.pth (torch, 4458 bytes, 6 tensors)

l1.weight f4 [8, 31]
0	0x3ee73743	0.4515935
1	0x3d8d3893	0.06895556
2	0xbe994b14	-0.29940093
3	0xbf177464	-0.59161973
4	0x3f1c1496	0.6096891
5	0x3eeda702	0.4641648
6	0x3eb320c7	0.34985945
7	0x3e8dbcd3	0.27683124
8	0x3e5b412f	0.21411584
9	0x3ec485d1	0.38383344
10	0x3e01dbf5	0.12681563
11	0xbf09833c	-0.5371587
12	0x3f193a25	0.59854347
13	0x3ebe406b	0.37158522
14	0x3e969dac	0.2941717
15	0x3f055e3f	0.52096933
16	0x3eb3c19f	0.3510866
17	0xbdb32b11	-0.08748449
18	0x3b8b947e	0.004259645
19	0x3ecdb59e	0.40177625
20	0xbe9e17b3	-0.30877456
21	0x3eb75883	0.35809717
22	0x3eb32761	0.3499098
23	0x3efcf2c4	0.49403965
24	0x3ed6a626	0.41923636
25	0x3e40e7a7	0.18838368
26	0xbf177218	-0.5915847
27	0x3e391597	0.18074642
28	0x3e6a65ee	0.22890446
29	0x3ea69c9b	0.32541355
30	0x3e8f5c7b	0.28000244
31	0xbef7b330	-0.48378897
32	0xbca4ad02	-0.020102028
33	0x3ebe4164	0.37159264
34	0x3f276fa9	0.65404755
35	0x3f1d080f	0.6134042
36	0x3ed71997	0.4201171
37	0x3eb5d6fa	0.35515577
38	0xbdb64010	-0.08898938
39	0xbe583c3d	-0.21116729
40	0xbe2a8b7d	-0.16654773
41	0x3bfa37a6	0.0076360283
42	0x3ed84b8f	0.42245147
43	0xbe5bb2ae	-0.2145488
44	0xbe89dd9f	-0.26926896
45	0xbd8662cd	-0.065618135
46	0xbd32a6fe	-0.043616287
47	0xbd6fc4e1	-0.058537368
48	0x3e50a27e	0.20374486
49	0x3bc1e71d	0.0059174434
50	0x3edb77be	0.42864794
51	0x3f0522c4	0.52006173
52	0x3c791b20	0.015204221
53	0xbe0de6e7	-0.13857614
54	0xbe73272f	-0.23745416
55	0x3ea2198b	0.31660113
56	0xbe13f2a4	-0.14448029
57	0x3f6bc691	0.92099863
58	0xbe69b4f4	-0.22822934
59	0x3f0db65b	0.5535638
60	0xbe8a9f4f	-0.27074668
61	0x3ebe323b	0.37147698
62	0xbeb652e3	-0.35610113
63	0xbe85e251	-0.26149228
64	0xbe0aee53	-0.13567476
65	0xbcca8ca3	-0.024725264
66	0x3f5b63fa	0.8569943
67	0x3ee94062	0.45556933
68	0x3ee726bb	0.45146737
69	0x3ec4f455	0.3846766
70	0xbe61b075	-0.2203997
71	0x3e29a2a9	0.16565956
72	0xbe85bd9e	-0.2612123
73	0xbce908a1	-0.028446497
74	0xbd0c7703	-0.034293186
75	0xbea4c568	-0.3218186
76	0x3ec5d764	0.38640893
77	0xbdf88604	-0.121349365
78	0x3e00f738	0.12594306
79	0xbdacdba0	-0.08440328
80	0xbe4ce66b	-0.20009772
81	0x3e5043bc	0.20338339
82	0xbe1b9c2d	-0.15196295
83	0x3e0fc61d	0.14040418
84	0x3d83afdc	0.06430027
85	0xbdc2374f	-0.094832055
86	0x3e7f349e	0.24922416
87	0x3e3c0746	0.1836215
88	0x3ea7bc85	0.32761016
89	0x3eebf599	0.46085814
90	0x3ea0acaf	0.31381747
91	0x3d940713	0.07227912
92	0x3ee9b797	0.4564788
93	0xbed3e696	-0.4138686
94	0x3f1dfb29	0.61711365
95	0x3ea874a2	0.32901484
96	0x3f0fa90c	0.5611732
97	0x3f0811b8	0.53152037
98	0x3ea1e4ed	0.3161997
99	0x3e85cda2	0.26133448
100	0xbef2756c	-0.4735521
101	0x3f374a2b	0.71597546
102	0xbdfa5bd8	-0.12224549
103	0x3f1b21da	0.6059853
104	0x3f0f1fbe	0.5590781
105	0xbe94358c	-0.28947103
106	0xbe7fe735	-0.24990542
107	0xbe9e0fec	-0.30871522
108	0xbe20aee8	-0.15691721
109	0x3d2f0264	0.04272689
110	0x3ea058e9	0.31317833
111	0x3f04c04e	0.51855934
112	0x3eca3221	0.3949137
113	0x3e93f3be	0.28896898
114	0xbef222dd	-0.47292224
115	0x3ea7f467	0.32803652
116	0x3f358b19	0.7091537
117	0x3ec1c6db	0.37847027
118	0xbec4b3c9	-0.38418415
119	0x3f677306	0.90409887
120	0xbbd65d54	-0.0065418873
121	0x3e26c856	0.1628736
122	0xbda9b3a6	-0.08286218
123	0x3e97f655	0.29680124
124	0x3f0afbf5	0.54290706
125	0xbeb31d17	-0.3498313
126	0x3f05606c	0.52100253
127	0x3f631982	0.88710797
128	0xbf32676b	-0.69689053
129	0xbeb999f7	-0.36250278
130	0xbe8fec5e	-0.2811002
131	0x3f2c41ef	0.67288107
132	0xbea84770	-0.32867002
133	0x3e9f9615	0.3116919
134	0xbeb17aa8	-0.34663892
135	0x3f483da8	0.7821908
136	0x3e92aedd	0.28649035
137	0x3f040e5b	0.51584405
138	0x3ea0b187	0.31385443
139	0x3e9d0c37	0.30673382
140	0x3ebe655a	0.371867
141	0x3f1f82bb	0.62308854
142	0xbed955c5	-0.4244825
143	0xbe57c70f	-0.21072029
144	0x3eb1d74e	0.34734577
145	0x3f14817a	0.58010066
146	0x3db97127	0.09054785
147	0xbea52501	-0.32254794
148	0xbdc0c820	-0.09413171
149	0x3ed4662d	0.41484204
150	0x3f3acba1	0.72966963
151	0x3ec729b1	0.38898996
152	0xbe75e996	-0.24014887
153	0x3e90fde5	0.28318706
154	0xbe51bdc7	-0.2048255
155	0xbe4c503c	-0.19952482
156	0x3ee09905	0.43866745
157	0xbdb0b74d	-0.08628712
158	0xbedaf3ad	-0.42764035
159	0x3f717053	0.9431202
160	0x3ec88a44	0.39167988
161	0x3f2142b5	0.6299241
162	0x3eaa3884	0.33246243
163	0x3e7426f1	0.2384298
164	0x3e1694d0	0.14705205
165	0x3ece0d03	0.40244302
166	0xbf0bbabc	-0.5458181
167	0xbe529317	-0.20563923
168	0xbe6d1e5f	-0.23156117
169	0x3e62ab71	0.22135712
170	0xbe42a13c	-0.19006819
171	0x3d4bfcb8	0.04980156
172	0xbd7c13fb	-0.061542492
173	0x3f0618a8	0.5238137
174	0x3f204abb	0.6261403
175	0xbe95c7a7	-0.29253885
176	0x3ea5ff0b	0.32421145
177	0x3e84ab95	0.25912157
178	0x3ed3280e	0.41241497
179	0x3eb9269e	0.36162275
180	0x3e8e7af4	0.2782818
181	0xbeb13fd8	-0.3461902
182	0x3e26d520	0.16292238
183	0x3f29295f	0.6607875
184	0x3e5bc04e	0.21460077
185	0x3f0a0345	0.5391124
186	0xbed3c403	-0.41360483
187	0xbeacb95a	-0.33735162
188	0x3eb46f1a	0.35241014
189	0x3ef60f06	0.48058337
190	0x3ef2cbf7	0.47421238
191	0x3ea13e04	0.31492627
192	0x3eaf753b	0.34269127
193	0x3f07d143	0.53053683
194	0xbeb6746a	-0.35635692
195	0x3ec5b4a1	0.3861437
196	0xbeacaf46	-0.33727473
197	0x3f0744e2	0.5283948
198	0xbe869a27	-0.26289484
199	0xbe3fac30	-0.18718028
200	0x3e51273c	0.20425123
201	0xbda7c3f7	-0.08191674
202	0x3e90c08b	0.282719
203	0x3ea3db3d	0.32003203
204	0xbe2e8cb7	-0.17045866
205	0x3e560cb7	0.20903288
206	0x3ec27e90	0.37987185
207	0x3e6a2a46	0.22867689
208	0x3da507f3	0.08058157
209	0xbde725cb	-0.11286505
210	0x3ec75341	0.38930705
211	0x3e43c2e9	0.19117321
212	0x3f39d8b8	0.7259631
213	0x3ecd80ac	0.4013723
214	0x3ed81e62	0.4221068
215	0x3ed8c5ae	0.42338318
216	0x3eb1c2c4	0.34718907
217	0xbf00dc67	-0.5033631
218	0xbe3bad63	-0.1832786
219	0x3e9f1d35	0.3107697
220	0x3e9e3659	0.3090084
221	0x3f45a964	0.77211595
222	0x3ebb1d0e	0.36545604
223	0x3f04589f	0.51697725
224	0x3ec74409	0.38919094
225	0xbe3d5b33	-0.18491821
226	0x3e09e694	0.13466865
227	0xbe3ba7d9	-0.18325748
228	0x3eac69ac	0.3367437
229	0xbe82dfcd	-0.2556137
230	0xbe7dcc65	-0.24785002
231	0x3e952882	0.29132468
232	0xbe103433	-0.14082412
233	0x3e71e1ec	0.23621339
234	0x3e846a68	0.25862432
235	0xbedd7de1	-0.432601
236	0x3ea83784	0.32854855
237	0x3ea2b790	0.31780672
238	0x3efd79ec	0.49507082
239	0x3de9d3a9	0.11417324
240	0xbea3e8a8	-0.3201344
241	0x3ede00de	0.43360037
242	0x3e384d6b	0.17998283
243	0x3f340667	0.7032227
244	0x3ed054fa	0.40689832
245	0x3f2affb7	0.6679644
246	0x3ec1ce04	0.3785249
247	0x3eaac696	0.33354634

l1.bias f4 [8]
0	0x3f386cf2	0.7204124
1	0x3ef7b526	0.48380393
2	0x3eb65272	0.35609776
3	0x3f1a1da1	0.6020146
4	0x3f325bad	0.69671136
5	0x3f0bbe12	0.545869
6	0x3ee67940	0.4501438
7	0x3f00dd09	0.5033727

l2.weight f4 [8, 8]
0	0xbe1fc9d8	-0.15604341
1	0xbcab4c3c	-0.020910375
2	0x3e64f906	0.2236062
3	0xbe8e3317	-0.27773353
4	0xbea51fe3	-0.3225089
5	0x3e8c614e	0.27417988
6	0xbd30dcbf	-0.04317927
7	0xbd5a13a8	-0.053241402
8	0x3ea6826a	0.32521373
9	0xbdbe0c7d	-0.09279726
10	0x3f65d698	0.8978057
11	0xbf15cd32	-0.5851623
12	0xbe3d7e05	-0.18505104
13	0x3f415763	0.75523967
14	0x3ed463c8	0.41482377
15	0x3f37b1f3	0.71755904
16	0xbf20194c	-0.625386
17	0x3f8fe612	1.1242087
18	0x3f59233e	0.848194
19	0x3f0bc642	0.5459939
20	0x3f5253e2	0.82159245
21	0xbe746260	-0.23865652
22	0x3f826585	1.0187231
23	0x3f7aa7a1	0.9791203
24	0x3f32d791	0.6986018
25	0x3e80bff3	0.25146446
26	0x3f093098	0.53589773
27	0xba03971a	-0.00050197693
28	0xbf3ab8a4	-0.7293799
29	0x3f30e458	0.69098425
30	0x3e7a73b5	0.24458201
31	0x3f0f8de4	0.5607588
32	0x3f05268f	0.5201196
33	0xbec4936c	-0.38393724
34	0x3f6df20e	0.9294747
35	0xbf323170	-0.69606686
36	0xbd7282a9	-0.05920664
37	0x3f3e3fd4	0.74316144
38	0x3f29019f	0.660181
39	0x3f102a43	0.56314486
40	0x3fb64b88	1.42418
41	0xbf7a18a8	-0.9769387
42	0xbe6a526c	-0.22883004
43	0xbf57819a	-0.8418213
44	0x3f8b126f	1.0865
45	0x3e4d0acd	0.20023651
46	0x3e33ddc4	0.17565066
47	0xbd1b8d6b	-0.037976664
48	0x3e919048	0.2843039
49	0x3f136142	0.5757028
50	0x3e10afe3	0.14129595
51	0x3f8abb6e	1.0838449
52	0xbf292011	-0.66064554
53	0x3ec15146	0.3775732
54	0x3cbd646d	0.023119176
55	0x3d81a041	0.06329394
56	0x3f2f0ac1	0.68375784
57	0x3e06bbb9	0.13157548
58	0xbd3703f3	-0.0446815
59	0x3f8b6fab	1.0893453
60	0xbf1e0d0e	-0.6173867
61	0x3f4f3765	0.809439
62	0xbe98aee5	-0.29820934
63	0xbf1a47de	-0.6026591

l2.bias f4 [8]
0	0xbe8e25b6	-0.27763146
1	0xbea3067e	-0.3184089
2	0xbe43e658	-0.19130838
3	0xbe26c328	-0.16285384
4	0xbe8cfc76	-0.27536362
5	0x3f81ba55	1.0134989
6	0x3e19dbb0	0.1502521
7	0x3f337227	0.7009606

l3.weight f4 [5, 8]
0	0xbdd1c7d9	-0.10243196
1	0xbf319a41	-0.69376
2	0xbf8b1aa2	-1.0867503
3	0xbf4f0c48	-0.80878115
4	0xbe3530b7	-0.17694364
5	0x3f969f48	1.1767359
6	0xbf889595	-1.0670649
7	0x3e4cd309	0.20002379
8	0x3d00e557	0.031468716
9	0x3eb8e61b	0.36113057
10	0x3bf575ff	0.007490873
11	0x3f026a14	0.5094311
12	0x3e23113c	0.15924543
13	0xbf3b9a1b	-0.7328202
14	0x3eaaca1e	0.33357328
15	0xbe0a23ca	-0.13490215
16	0x3e8237da	0.25433236
17	0xbef5f701	-0.48040012
18	0x3f8a56ab	1.0807699
19	0xbf6f1e13	-0.93405265
20	0xbf67e158	-0.9057822
21	0xbea1fdc9	-0.31638935
22	0x3e16787a	0.14694396
23	0xbea46a4c	-0.32112348
24	0xbe9f4f07	-0.3111498
25	0x3f16328c	0.5867088
26	0xbe17b3b4	-0.14814645
27	0x3e4e360c	0.20137805
28	0x3f15c27c	0.58499885
29	0x3e2e25b6	0.17006573
30	0xbf894f18	-1.0727262
31	0xbf725582	-0.94661725
32	0x3e831e90	0.25609255
33	0xbf40b22a	-0.75271857
34	0xbf8c80d2	-1.0976813
35	0x3ea3bd9d	0.319806
36	0xbf8137ef	-1.0095195
37	0xbebd62c4	-0.36989415
38	0x3f0e537b	0.5559613
39	0x3f5adf87	0.85497326

l3.bias f4 [5]
0	0x3e7ade26	0.24498805
1	0xbf355642	-0.70834744
2	0x3e819be3	0.25314245
3	0xbf33015b	-0.69923943
4	0xbca2f2c5	-0.019891152
